…
Parameter:  M500c
slope = 0.939,intercept = 0.725,r_value = 0.495,p_value = 0.000,std_err = 0.016,coefficient of correlation = 0.245
scatter: 0.651 dex 
---------------------------------------
Parameter:  f_gas_R500c
slope = 1.086,intercept = 0.004,r_value = 0.276,p_value = 0.000,std_err = 0.037,coefficient of correlation = 0.076
scatter: 0.140 dex 
---------------------------------------
Parameter:  Log_Z
slope = 0.359,intercept = -1.427,r_value = 0.139,p_value = 0.000,std_err = 0.025,coefficient of correlation = 0.019
scatter: 0.442 dex 
---------------------------------------
CNN(
  (conv01): Conv2d(8, 4, kernel_size=(3, 3), stride=(1, 1), padding=(1, 1))
  (conv02): Conv2d(4, 4, kernel_size=(3, 3), stride=(1, 1), padding=(1, 1))
  (conv03): Conv2d(4, 4, kernel_size=(2, 2), stride=(2, 2))
  (Bat01): BatchNorm2d(4, eps=1e-05, momentum=0.1, affine=True, track_running_stats=True)
  (Bat02): BatchNorm2d(4, eps=1e-05, momentum=0.1, affine=True, track_running_stats=True)
  (Bat03): BatchNorm2d(4, eps=1e-05, momentum=0.1, affine=True, track_running_stats=True)
  (conv11): Conv2d(4, 8, kernel_size=(3, 3), stride=(1, 1), padding=(1, 1))
  (conv12): Conv2d(8, 8, kernel_size=(3, 3), stride=(1, 1), padding=(1, 1))
  (conv13): Conv2d(8, 8, kernel_size=(2, 2), stride=(2, 2))
  (Bat11): BatchNorm2d(8, eps=1e-05, momentum=0.1, affine=True, track_running_stats=True)
  (Bat12): BatchNorm2d(8, eps=1e-05, momentum=0.1, affine=True, track_running_stats=True)
  (Bat13): BatchNorm2d(8, eps=1e-05, momentum=0.1, affine=True, track_running_stats=True)
  (conv21): Conv2d(8, 16, kernel_size=(3, 3), stride=(1, 1), padding=(1, 1))
  (conv22): Conv2d(16, 16, kernel_size=(3, 3), stride=(1, 1), padding=(1, 1))
  (conv23): Conv2d(16, 16, kernel_size=(2, 2), stride=(2, 2))
  (Bat21): BatchNorm2d(16, eps=1e-05, momentum=0.1, affine=True, track_running_stats=True)
  (Bat22): BatchNorm2d(16, eps=1e-05, momentum=0.1, affine=True, track_running_stats=True)
  (Bat23): BatchNorm2d(16, eps=1e-05, momentum=0.1, affine=True, track_running_stats=True)
  (conv31): Conv2d(16, 32, kernel_size=(3, 3), stride=(1, 1), padding=(1, 1))
  (conv32): Conv2d(32, 32, kernel_size=(3, 3), stride=(1, 1), padding=(1, 1))
  (conv33): Conv2d(32, 32, kernel_size=(2, 2), stride=(2, 2))
  (Bat31): BatchNorm2d(32, eps=1e-05, momentum=0.1, affine=True, track_running_stats=True)
  (Bat32): BatchNorm2d(32, eps=1e-05, momentum=0.1, affine=True, track_running_stats=True)
  (Bat33): BatchNorm2d(32, eps=1e-05, momentum=0.1, affine=True, track_running_stats=True)
  (conv41): Conv2d(32, 64, kernel_size=(3, 3), stride=(1, 1), padding=(1, 1))
  (conv42): Conv2d(64, 64, kernel_size=(3, 3), stride=(1, 1), padding=(1, 1))
  (conv43): Conv2d(64, 64, kernel_size=(2, 2), stride=(2, 2))
  (Bat41): BatchNorm2d(64, eps=1e-05, momentum=0.1, affine=True, track_running_stats=True)
  (Bat42): BatchNorm2d(64, eps=1e-05, momentum=0.1, affine=True, track_running_stats=True)
  (Bat43): BatchNorm2d(64, eps=1e-05, momentum=0.1, affine=True, track_running_stats=True)
  (conv51): Conv2d(64, 128, kernel_size=(3, 3), stride=(1, 1), padding=(1, 1))
  (conv52): Conv2d(128, 128, kernel_size=(3, 3), stride=(1, 1), padding=(1, 1))
  (conv53): Conv2d(128, 128, kernel_size=(2, 2), stride=(2, 2))
  (Bat51): BatchNorm2d(128, eps=1e-05, momentum=0.1, affine=True, track_running_stats=True)
  (Bat52): BatchNorm2d(128, eps=1e-05, momentum=0.1, affine=True, track_running_stats=True)
  (Bat53): BatchNorm2d(128, eps=1e-05, momentum=0.1, affine=True, track_running_stats=True)
  (conv61): Conv2d(128, 256, kernel_size=(2, 2), stride=(1, 1))
  (conv62): Conv2d(256, 256, kernel_size=(2, 2), stride=(1, 1))
  (conv63): Conv2d(256, 256, kernel_size=(2, 2), stride=(1, 1))
  (Bat61): BatchNorm2d(256, eps=1e-05, momentum=0.1, affine=True, track_running_stats=True)
  (Bat62): BatchNorm2d(256, eps=1e-05, momentum=0.1, affine=True, track_running_stats=True)
  (Bat63): BatchNorm2d(256, eps=1e-05, momentum=0.1, affine=True, track_running_stats=True)
  (P0): AvgPool2d(kernel_size=2, stride=2, padding=0)
  (FC1): Linear(in_features=256, out_features=128, bias=True)
  (FC2): Linear(in_features=128, out_features=6, bias=True)
  (dropout): Dropout(p=0.13999683023288126, inplace=False)
  (ReLU): ReLU()
  (LeakyReLU): LeakyReLU(negative_slope=0.2)
  (tanh): Tanh()
)
--- 48965.875373363495 seconds ---
