…
Parameter:  M500c
slope = 0.823,intercept = 2.356,r_value = 0.966,p_value = 0.000,std_err = 0.002,coefficient of correlation = 0.933
scatter: 0.095 dex 
---------------------------------------
Parameter:  f_gas_R500c
slope = 0.802,intercept = 0.010,r_value = 0.951,p_value = 0.000,std_err = 0.003,coefficient of correlation = 0.904
scatter: 0.009 dex 
---------------------------------------
Parameter:  Log_Z
slope = 0.110,intercept = -2.041,r_value = 0.331,p_value = 0.000,std_err = 0.003,coefficient of correlation = 0.109
scatter: 0.132 dex 
---------------------------------------
CNN(
  (conv01): Conv2d(4, 2, kernel_size=(3, 3), stride=(1, 1), padding=(1, 1))
  (conv02): Conv2d(2, 2, kernel_size=(3, 3), stride=(1, 1), padding=(1, 1))
  (conv03): Conv2d(2, 2, kernel_size=(2, 2), stride=(2, 2))
  (Bat01): BatchNorm2d(2, eps=1e-05, momentum=0.1, affine=True, track_running_stats=True)
  (Bat02): BatchNorm2d(2, eps=1e-05, momentum=0.1, affine=True, track_running_stats=True)
  (Bat03): BatchNorm2d(2, eps=1e-05, momentum=0.1, affine=True, track_running_stats=True)
  (conv11): Conv2d(2, 4, kernel_size=(3, 3), stride=(1, 1), padding=(1, 1))
  (conv12): Conv2d(4, 4, kernel_size=(3, 3), stride=(1, 1), padding=(1, 1))
  (conv13): Conv2d(4, 4, kernel_size=(2, 2), stride=(2, 2))
  (Bat11): BatchNorm2d(4, eps=1e-05, momentum=0.1, affine=True, track_running_stats=True)
  (Bat12): BatchNorm2d(4, eps=1e-05, momentum=0.1, affine=True, track_running_stats=True)
  (Bat13): BatchNorm2d(4, eps=1e-05, momentum=0.1, affine=True, track_running_stats=True)
  (conv21): Conv2d(4, 8, kernel_size=(3, 3), stride=(1, 1), padding=(1, 1))
  (conv22): Conv2d(8, 8, kernel_size=(3, 3), stride=(1, 1), padding=(1, 1))
  (conv23): Conv2d(8, 8, kernel_size=(2, 2), stride=(2, 2))
  (Bat21): BatchNorm2d(8, eps=1e-05, momentum=0.1, affine=True, track_running_stats=True)
  (Bat22): BatchNorm2d(8, eps=1e-05, momentum=0.1, affine=True, track_running_stats=True)
  (Bat23): BatchNorm2d(8, eps=1e-05, momentum=0.1, affine=True, track_running_stats=True)
  (conv31): Conv2d(8, 16, kernel_size=(3, 3), stride=(1, 1), padding=(1, 1))
  (conv32): Conv2d(16, 16, kernel_size=(3, 3), stride=(1, 1), padding=(1, 1))
  (conv33): Conv2d(16, 16, kernel_size=(2, 2), stride=(2, 2))
  (Bat31): BatchNorm2d(16, eps=1e-05, momentum=0.1, affine=True, track_running_stats=True)
  (Bat32): BatchNorm2d(16, eps=1e-05, momentum=0.1, affine=True, track_running_stats=True)
  (Bat33): BatchNorm2d(16, eps=1e-05, momentum=0.1, affine=True, track_running_stats=True)
  (conv41): Conv2d(16, 32, kernel_size=(3, 3), stride=(1, 1), padding=(1, 1))
  (conv42): Conv2d(32, 32, kernel_size=(3, 3), stride=(1, 1), padding=(1, 1))
  (conv43): Conv2d(32, 32, kernel_size=(2, 2), stride=(2, 2))
  (Bat41): BatchNorm2d(32, eps=1e-05, momentum=0.1, affine=True, track_running_stats=True)
  (Bat42): BatchNorm2d(32, eps=1e-05, momentum=0.1, affine=True, track_running_stats=True)
  (Bat43): BatchNorm2d(32, eps=1e-05, momentum=0.1, affine=True, track_running_stats=True)
  (conv51): Conv2d(32, 64, kernel_size=(3, 3), stride=(1, 1), padding=(1, 1))
  (conv52): Conv2d(64, 64, kernel_size=(3, 3), stride=(1, 1), padding=(1, 1))
  (conv53): Conv2d(64, 64, kernel_size=(2, 2), stride=(2, 2))
  (Bat51): BatchNorm2d(64, eps=1e-05, momentum=0.1, affine=True, track_running_stats=True)
  (Bat52): BatchNorm2d(64, eps=1e-05, momentum=0.1, affine=True, track_running_stats=True)
  (Bat53): BatchNorm2d(64, eps=1e-05, momentum=0.1, affine=True, track_running_stats=True)
  (conv61): Conv2d(64, 128, kernel_size=(2, 2), stride=(1, 1))
  (conv62): Conv2d(128, 128, kernel_size=(2, 2), stride=(1, 1))
  (conv63): Conv2d(128, 128, kernel_size=(2, 2), stride=(1, 1))
  (Bat61): BatchNorm2d(128, eps=1e-05, momentum=0.1, affine=True, track_running_stats=True)
  (Bat62): BatchNorm2d(128, eps=1e-05, momentum=0.1, affine=True, track_running_stats=True)
  (Bat63): BatchNorm2d(128, eps=1e-05, momentum=0.1, affine=True, track_running_stats=True)
  (P0): AvgPool2d(kernel_size=2, stride=2, padding=0)
  (FC1): Linear(in_features=128, out_features=64, bias=True)
  (FC2): Linear(in_features=64, out_features=6, bias=True)
  (dropout): Dropout(p=0.017314587275504834, inplace=False)
  (ReLU): ReLU()
  (LeakyReLU): LeakyReLU(negative_slope=0.2)
  (tanh): Tanh()
)
--- 35971.24111390114 seconds ---
