…
epoch: 31/50; train loss: -5.631e+00; test loss: 3.276e+00
epoch: 41/50; train loss: -5.993e+00; test loss: 2.509e+00
broken = True
Parameter:  M500c
slope = -0.606,intercept = 21.168,r_value = -0.063,p_value = 0.000,std_err = 0.093,coefficient of correlation = 0.004
scatter: 3.247 dex 
Parameter:  f_gas_R500c
slope = 0.098,intercept = 0.053,r_value = 0.020,p_value = 0.042,std_err = 0.048,coefficient of correlation = 0.000
scatter: 0.142 dex 
Parameter:  Log_Z
slope = 0.077,intercept = -2.226,r_value = 0.007,p_value = 0.461,std_err = 0.104,coefficient of correlation = 0.000
scatter: 1.488 dex 
same
CNN(
  (conv01): Conv2d(10, 6, kernel_size=(3, 3), stride=(1, 1), padding=(1, 1))
  (conv02): Conv2d(6, 6, kernel_size=(3, 3), stride=(1, 1), padding=(1, 1))
  (conv03): Conv2d(6, 6, kernel_size=(2, 2), stride=(2, 2))
  (Bat01): BatchNorm2d(6, eps=1e-05, momentum=0.1, affine=True, track_running_stats=True)
  (Bat02): BatchNorm2d(6, eps=1e-05, momentum=0.1, affine=True, track_running_stats=True)
  (Bat03): BatchNorm2d(6, eps=1e-05, momentum=0.1, affine=True, track_running_stats=True)
  (conv11): Conv2d(6, 12, kernel_size=(3, 3), stride=(1, 1), padding=(1, 1))
  (conv12): Conv2d(12, 12, kernel_size=(3, 3), stride=(1, 1), padding=(1, 1))
  (conv13): Conv2d(12, 12, kernel_size=(2, 2), stride=(2, 2))
  (Bat11): BatchNorm2d(12, eps=1e-05, momentum=0.1, affine=True, track_running_stats=True)
  (Bat12): BatchNorm2d(12, eps=1e-05, momentum=0.1, affine=True, track_running_stats=True)
  (Bat13): BatchNorm2d(12, eps=1e-05, momentum=0.1, affine=True, track_running_stats=True)
  (conv21): Conv2d(12, 24, kernel_size=(3, 3), stride=(1, 1), padding=(1, 1))
  (conv22): Conv2d(24, 24, kernel_size=(3, 3), stride=(1, 1), padding=(1, 1))
  (conv23): Conv2d(24, 24, kernel_size=(2, 2), stride=(2, 2))
  (Bat21): BatchNorm2d(24, eps=1e-05, momentum=0.1, affine=True, track_running_stats=True)
  (Bat22): BatchNorm2d(24, eps=1e-05, momentum=0.1, affine=True, track_running_stats=True)
  (Bat23): BatchNorm2d(24, eps=1e-05, momentum=0.1, affine=True, track_running_stats=True)
  (conv31): Conv2d(24, 48, kernel_size=(3, 3), stride=(1, 1), padding=(1, 1))
  (conv32): Conv2d(48, 48, kernel_size=(3, 3), stride=(1, 1), padding=(1, 1))
  (conv33): Conv2d(48, 48, kernel_size=(2, 2), stride=(2, 2))
  (Bat31): BatchNorm2d(48, eps=1e-05, momentum=0.1, affine=True, track_running_stats=True)
  (Bat32): BatchNorm2d(48, eps=1e-05, momentum=0.1, affine=True, track_running_stats=True)
  (Bat33): BatchNorm2d(48, eps=1e-05, momentum=0.1, affine=True, track_running_stats=True)
  (conv41): Conv2d(48, 96, kernel_size=(3, 3), stride=(1, 1), padding=(1, 1))
  (conv42): Conv2d(96, 96, kernel_size=(3, 3), stride=(1, 1), padding=(1, 1))
  (conv43): Conv2d(96, 96, kernel_size=(2, 2), stride=(2, 2))
  (Bat41): BatchNorm2d(96, eps=1e-05, momentum=0.1, affine=True, track_running_stats=True)
  (Bat42): BatchNorm2d(96, eps=1e-05, momentum=0.1, affine=True, track_running_stats=True)
  (Bat43): BatchNorm2d(96, eps=1e-05, momentum=0.1, affine=True, track_running_stats=True)
  (conv51): Conv2d(96, 192, kernel_size=(3, 3), stride=(1, 1), padding=(1, 1))
  (conv52): Conv2d(192, 192, kernel_size=(3, 3), stride=(1, 1), padding=(1, 1))
  (conv53): Conv2d(192, 192, kernel_size=(2, 2), stride=(2, 2))
  (Bat51): BatchNorm2d(192, eps=1e-05, momentum=0.1, affine=True, track_running_stats=True)
  (Bat52): BatchNorm2d(192, eps=1e-05, momentum=0.1, affine=True, track_running_stats=True)
  (Bat53): BatchNorm2d(192, eps=1e-05, momentum=0.1, affine=True, track_running_stats=True)
  (conv61): Conv2d(192, 384, kernel_size=(2, 2), stride=(1, 1))
  (conv62): Conv2d(384, 384, kernel_size=(2, 2), stride=(1, 1))
  (conv63): Conv2d(384, 384, kernel_size=(2, 2), stride=(1, 1))
  (Bat61): BatchNorm2d(384, eps=1e-05, momentum=0.1, affine=True, track_running_stats=True)
  (Bat62): BatchNorm2d(384, eps=1e-05, momentum=0.1, affine=True, track_running_stats=True)
  (Bat63): BatchNorm2d(384, eps=1e-05, momentum=0.1, affine=True, track_running_stats=True)
  (P0): AvgPool2d(kernel_size=2, stride=2, padding=0)
  (FC1): Linear(in_features=384, out_features=192, bias=True)
  (FC2): Linear(in_features=192, out_features=6, bias=True)
  (dropout): Dropout(p=0.07109499396815744, inplace=False)
  (ReLU): ReLU()
  (LeakyReLU): LeakyReLU(negative_slope=0.2)
  (tanh): Tanh()
)
Best trial:
	number: 16
	params: {'dr': 0.07109499396815744, 'hidden': 3, 'lr': 0.0002646078570080699, 'wd': 0.004972204112166391}
	values: [-6.73526819847849]
---------------------------------------
Parameter:  M500c
…
