…
Parameter:  M500c
slope = 0.632,intercept = 4.370,r_value = 0.676,p_value = 0.000,std_err = 0.007,coefficient of correlation = 0.457
scatter: 0.308 dex 
---------------------------------------
Parameter:  f_gas_R500c
slope = 0.827,intercept = 0.016,r_value = 0.811,p_value = 0.000,std_err = 0.006,coefficient of correlation = 0.658
scatter: 0.023 dex 
---------------------------------------
Parameter:  f_cool_R500c
slope = 0.805,intercept = 0.086,r_value = 0.879,p_value = 0.000,std_err = 0.004,coefficient of correlation = 0.772
scatter: 0.103 dex 
---------------------------------------
CNN(
  (conv01): Conv2d(3, 10, kernel_size=(3, 3), stride=(1, 1), padding=(1, 1))
  (conv02): Conv2d(10, 10, kernel_size=(3, 3), stride=(1, 1), padding=(1, 1))
  (conv03): Conv2d(10, 10, kernel_size=(2, 2), stride=(2, 2))
  (Bat01): BatchNorm2d(10, eps=1e-05, momentum=0.1, affine=True, track_running_stats=True)
  (Bat02): BatchNorm2d(10, eps=1e-05, momentum=0.1, affine=True, track_running_stats=True)
  (Bat03): BatchNorm2d(10, eps=1e-05, momentum=0.1, affine=True, track_running_stats=True)
  (conv11): Conv2d(10, 20, kernel_size=(3, 3), stride=(1, 1), padding=(1, 1))
  (conv12): Conv2d(20, 20, kernel_size=(3, 3), stride=(1, 1), padding=(1, 1))
  (conv13): Conv2d(20, 20, kernel_size=(2, 2), stride=(2, 2))
  (Bat11): BatchNorm2d(20, eps=1e-05, momentum=0.1, affine=True, track_running_stats=True)
  (Bat12): BatchNorm2d(20, eps=1e-05, momentum=0.1, affine=True, track_running_stats=True)
  (Bat13): BatchNorm2d(20, eps=1e-05, momentum=0.1, affine=True, track_running_stats=True)
  (conv21): Conv2d(20, 40, kernel_size=(3, 3), stride=(1, 1), padding=(1, 1))
  (conv22): Conv2d(40, 40, kernel_size=(3, 3), stride=(1, 1), padding=(1, 1))
  (conv23): Conv2d(40, 40, kernel_size=(2, 2), stride=(2, 2))
  (Bat21): BatchNorm2d(40, eps=1e-05, momentum=0.1, affine=True, track_running_stats=True)
  (Bat22): BatchNorm2d(40, eps=1e-05, momentum=0.1, affine=True, track_running_stats=True)
  (Bat23): BatchNorm2d(40, eps=1e-05, momentum=0.1, affine=True, track_running_stats=True)
  (conv31): Conv2d(40, 80, kernel_size=(3, 3), stride=(1, 1), padding=(1, 1))
  (conv32): Conv2d(80, 80, kernel_size=(3, 3), stride=(1, 1), padding=(1, 1))
  (conv33): Conv2d(80, 80, kernel_size=(2, 2), stride=(2, 2))
  (Bat31): BatchNorm2d(80, eps=1e-05, momentum=0.1, affine=True, track_running_stats=True)
  (Bat32): BatchNorm2d(80, eps=1e-05, momentum=0.1, affine=True, track_running_stats=True)
  (Bat33): BatchNorm2d(80, eps=1e-05, momentum=0.1, affine=True, track_running_stats=True)
  (conv41): Conv2d(80, 160, kernel_size=(3, 3), stride=(1, 1), padding=(1, 1))
  (conv42): Conv2d(160, 160, kernel_size=(3, 3), stride=(1, 1), padding=(1, 1))
  (conv43): Conv2d(160, 160, kernel_size=(2, 2), stride=(2, 2))
  (Bat41): BatchNorm2d(160, eps=1e-05, momentum=0.1, affine=True, track_running_stats=True)
  (Bat42): BatchNorm2d(160, eps=1e-05, momentum=0.1, affine=True, track_running_stats=True)
  (Bat43): BatchNorm2d(160, eps=1e-05, momentum=0.1, affine=True, track_running_stats=True)
  (conv51): Conv2d(160, 320, kernel_size=(3, 3), stride=(1, 1), padding=(1, 1))
  (conv52): Conv2d(320, 320, kernel_size=(3, 3), stride=(1, 1), padding=(1, 1))
  (conv53): Conv2d(320, 320, kernel_size=(2, 2), stride=(2, 2))
  (Bat51): BatchNorm2d(320, eps=1e-05, momentum=0.1, affine=True, track_running_stats=True)
  (Bat52): BatchNorm2d(320, eps=1e-05, momentum=0.1, affine=True, track_running_stats=True)
  (Bat53): BatchNorm2d(320, eps=1e-05, momentum=0.1, affine=True, track_running_stats=True)
  (conv61): Conv2d(320, 640, kernel_size=(2, 2), stride=(1, 1))
  (conv62): Conv2d(640, 640, kernel_size=(2, 2), stride=(1, 1))
  (conv63): Conv2d(640, 640, kernel_size=(2, 2), stride=(1, 1))
  (Bat61): BatchNorm2d(640, eps=1e-05, momentum=0.1, affine=True, track_running_stats=True)
  (Bat62): BatchNorm2d(640, eps=1e-05, momentum=0.1, affine=True, track_running_stats=True)
  (Bat63): BatchNorm2d(640, eps=1e-05, momentum=0.1, affine=True, track_running_stats=True)
  (P0): AvgPool2d(kernel_size=2, stride=2, padding=0)
  (FC1): Linear(in_features=640, out_features=320, bias=True)
  (FC2): Linear(in_features=320, out_features=6, bias=True)
  (dropout): Dropout(p=0.11781050865537263, inplace=False)
  (ReLU): ReLU()
  (LeakyReLU): LeakyReLU(negative_slope=0.2)
  (tanh): Tanh()
)
--- 43192.936045885086 seconds ---
