…
Parameter:  M500c
slope = 0.835,intercept = 1.952,r_value = 0.922,p_value = 0.000,std_err = 0.003,coefficient of correlation = 0.850
scatter: 0.153 dex 
---------------------------------------
Parameter:  f_gas_R500c
slope = 0.851,intercept = 0.007,r_value = 0.924,p_value = 0.000,std_err = 0.003,coefficient of correlation = 0.854
scatter: 0.014 dex 
---------------------------------------
Parameter:  f_cool_R500c
slope = 0.796,intercept = 0.087,r_value = 0.902,p_value = 0.000,std_err = 0.004,coefficient of correlation = 0.814
scatter: 0.093 dex 
---------------------------------------
CNN(
  (conv01): Conv2d(1, 6, kernel_size=(3, 3), stride=(1, 1), padding=(1, 1))
  (conv02): Conv2d(6, 6, kernel_size=(3, 3), stride=(1, 1), padding=(1, 1))
  (conv03): Conv2d(6, 6, kernel_size=(2, 2), stride=(2, 2))
  (Bat01): BatchNorm2d(6, eps=1e-05, momentum=0.1, affine=True, track_running_stats=True)
  (Bat02): BatchNorm2d(6, eps=1e-05, momentum=0.1, affine=True, track_running_stats=True)
  (Bat03): BatchNorm2d(6, eps=1e-05, momentum=0.1, affine=True, track_running_stats=True)
  (conv11): Conv2d(6, 12, kernel_size=(3, 3), stride=(1, 1), padding=(1, 1))
  (conv12): Conv2d(12, 12, kernel_size=(3, 3), stride=(1, 1), padding=(1, 1))
  (conv13): Conv2d(12, 12, kernel_size=(2, 2), stride=(2, 2))
  (Bat11): BatchNorm2d(12, eps=1e-05, momentum=0.1, affine=True, track_running_stats=True)
  (Bat12): BatchNorm2d(12, eps=1e-05, momentum=0.1, affine=True, track_running_stats=True)
  (Bat13): BatchNorm2d(12, eps=1e-05, momentum=0.1, affine=True, track_running_stats=True)
  (conv21): Conv2d(12, 24, kernel_size=(3, 3), stride=(1, 1), padding=(1, 1))
  (conv22): Conv2d(24, 24, kernel_size=(3, 3), stride=(1, 1), padding=(1, 1))
  (conv23): Conv2d(24, 24, kernel_size=(2, 2), stride=(2, 2))
  (Bat21): BatchNorm2d(24, eps=1e-05, momentum=0.1, affine=True, track_running_stats=True)
  (Bat22): BatchNorm2d(24, eps=1e-05, momentum=0.1, affine=True, track_running_stats=True)
  (Bat23): BatchNorm2d(24, eps=1e-05, momentum=0.1, affine=True, track_running_stats=True)
  (conv31): Conv2d(24, 48, kernel_size=(3, 3), stride=(1, 1), padding=(1, 1))
  (conv32): Conv2d(48, 48, kernel_size=(3, 3), stride=(1, 1), padding=(1, 1))
  (conv33): Conv2d(48, 48, kernel_size=(2, 2), stride=(2, 2))
  (Bat31): BatchNorm2d(48, eps=1e-05, momentum=0.1, affine=True, track_running_stats=True)
  (Bat32): BatchNorm2d(48, eps=1e-05, momentum=0.1, affine=True, track_running_stats=True)
  (Bat33): BatchNorm2d(48, eps=1e-05, momentum=0.1, affine=True, track_running_stats=True)
  (conv41): Conv2d(48, 96, kernel_size=(3, 3), stride=(1, 1), padding=(1, 1))
  (conv42): Conv2d(96, 96, kernel_size=(3, 3), stride=(1, 1), padding=(1, 1))
  (conv43): Conv2d(96, 96, kernel_size=(2, 2), stride=(2, 2))
  (Bat41): BatchNorm2d(96, eps=1e-05, momentum=0.1, affine=True, track_running_stats=True)
  (Bat42): BatchNorm2d(96, eps=1e-05, momentum=0.1, affine=True, track_running_stats=True)
  (Bat43): BatchNorm2d(96, eps=1e-05, momentum=0.1, affine=True, track_running_stats=True)
  (conv51): Conv2d(96, 192, kernel_size=(3, 3), stride=(1, 1), padding=(1, 1))
  (conv52): Conv2d(192, 192, kernel_size=(3, 3), stride=(1, 1), padding=(1, 1))
  (conv53): Conv2d(192, 192, kernel_size=(2, 2), stride=(2, 2))
  (Bat51): BatchNorm2d(192, eps=1e-05, momentum=0.1, affine=True, track_running_stats=True)
  (Bat52): BatchNorm2d(192, eps=1e-05, momentum=0.1, affine=True, track_running_stats=True)
  (Bat53): BatchNorm2d(192, eps=1e-05, momentum=0.1, affine=True, track_running_stats=True)
  (conv61): Conv2d(192, 384, kernel_size=(2, 2), stride=(1, 1))
  (conv62): Conv2d(384, 384, kernel_size=(2, 2), stride=(1, 1))
  (conv63): Conv2d(384, 384, kernel_size=(2, 2), stride=(1, 1))
  (Bat61): BatchNorm2d(384, eps=1e-05, momentum=0.1, affine=True, track_running_stats=True)
  (Bat62): BatchNorm2d(384, eps=1e-05, momentum=0.1, affine=True, track_running_stats=True)
  (Bat63): BatchNorm2d(384, eps=1e-05, momentum=0.1, affine=True, track_running_stats=True)
  (P0): AvgPool2d(kernel_size=2, stride=2, padding=0)
  (FC1): Linear(in_features=384, out_features=192, bias=True)
  (FC2): Linear(in_features=192, out_features=6, bias=True)
  (dropout): Dropout(p=0.1340118039559014, inplace=False)
  (ReLU): ReLU()
  (LeakyReLU): LeakyReLU(negative_slope=0.2)
  (tanh): Tanh()
)
--- 37798.71341276169 seconds ---
