…
Parameter:  M500c
slope = -2.001,intercept = 35.776,r_value = -0.247,p_value = 0.000,std_err = 0.076,coefficient of correlation = 0.061
scatter: 3.317 dex 
---------------------------------------
Parameter:  f_gas_R500c
slope = 1.088,intercept = 0.001,r_value = 0.380,p_value = 0.000,std_err = 0.026,coefficient of correlation = 0.145
scatter: 0.098 dex 
---------------------------------------
Parameter:  f_cool_R500c
slope = 1.055,intercept = -0.038,r_value = 0.699,p_value = 0.000,std_err = 0.010,coefficient of correlation = 0.488
scatter: 0.233 dex 
---------------------------------------
CNN(
  (conv01): Conv2d(7, 6, kernel_size=(3, 3), stride=(1, 1), padding=(1, 1))
  (conv02): Conv2d(6, 6, kernel_size=(3, 3), stride=(1, 1), padding=(1, 1))
  (conv03): Conv2d(6, 6, kernel_size=(2, 2), stride=(2, 2))
  (Bat01): BatchNorm2d(6, eps=1e-05, momentum=0.1, affine=True, track_running_stats=True)
  (Bat02): BatchNorm2d(6, eps=1e-05, momentum=0.1, affine=True, track_running_stats=True)
  (Bat03): BatchNorm2d(6, eps=1e-05, momentum=0.1, affine=True, track_running_stats=True)
  (conv11): Conv2d(6, 12, kernel_size=(3, 3), stride=(1, 1), padding=(1, 1))
  (conv12): Conv2d(12, 12, kernel_size=(3, 3), stride=(1, 1), padding=(1, 1))
  (conv13): Conv2d(12, 12, kernel_size=(2, 2), stride=(2, 2))
  (Bat11): BatchNorm2d(12, eps=1e-05, momentum=0.1, affine=True, track_running_stats=True)
  (Bat12): BatchNorm2d(12, eps=1e-05, momentum=0.1, affine=True, track_running_stats=True)
  (Bat13): BatchNorm2d(12, eps=1e-05, momentum=0.1, affine=True, track_running_stats=True)
  (conv21): Conv2d(12, 24, kernel_size=(3, 3), stride=(1, 1), padding=(1, 1))
  (conv22): Conv2d(24, 24, kernel_size=(3, 3), stride=(1, 1), padding=(1, 1))
  (conv23): Conv2d(24, 24, kernel_size=(2, 2), stride=(2, 2))
  (Bat21): BatchNorm2d(24, eps=1e-05, momentum=0.1, affine=True, track_running_stats=True)
  (Bat22): BatchNorm2d(24, eps=1e-05, momentum=0.1, affine=True, track_running_stats=True)
  (Bat23): BatchNorm2d(24, eps=1e-05, momentum=0.1, affine=True, track_running_stats=True)
  (conv31): Conv2d(24, 48, kernel_size=(3, 3), stride=(1, 1), padding=(1, 1))
  (conv32): Conv2d(48, 48, kernel_size=(3, 3), stride=(1, 1), padding=(1, 1))
  (conv33): Conv2d(48, 48, kernel_size=(2, 2), stride=(2, 2))
  (Bat31): BatchNorm2d(48, eps=1e-05, momentum=0.1, affine=True, track_running_stats=True)
  (Bat32): BatchNorm2d(48, eps=1e-05, momentum=0.1, affine=True, track_running_stats=True)
  (Bat33): BatchNorm2d(48, eps=1e-05, momentum=0.1, affine=True, track_running_stats=True)
  (conv41): Conv2d(48, 96, kernel_size=(3, 3), stride=(1, 1), padding=(1, 1))
  (conv42): Conv2d(96, 96, kernel_size=(3, 3), stride=(1, 1), padding=(1, 1))
  (conv43): Conv2d(96, 96, kernel_size=(2, 2), stride=(2, 2))
  (Bat41): BatchNorm2d(96, eps=1e-05, momentum=0.1, affine=True, track_running_stats=True)
  (Bat42): BatchNorm2d(96, eps=1e-05, momentum=0.1, affine=True, track_running_stats=True)
  (Bat43): BatchNorm2d(96, eps=1e-05, momentum=0.1, affine=True, track_running_stats=True)
  (conv51): Conv2d(96, 192, kernel_size=(3, 3), stride=(1, 1), padding=(1, 1))
  (conv52): Conv2d(192, 192, kernel_size=(3, 3), stride=(1, 1), padding=(1, 1))
  (conv53): Conv2d(192, 192, kernel_size=(2, 2), stride=(2, 2))
  (Bat51): BatchNorm2d(192, eps=1e-05, momentum=0.1, affine=True, track_running_stats=True)
  (Bat52): BatchNorm2d(192, eps=1e-05, momentum=0.1, affine=True, track_running_stats=True)
  (Bat53): BatchNorm2d(192, eps=1e-05, momentum=0.1, affine=True, track_running_stats=True)
  (conv61): Conv2d(192, 384, kernel_size=(2, 2), stride=(1, 1))
  (conv62): Conv2d(384, 384, kernel_size=(2, 2), stride=(1, 1))
  (conv63): Conv2d(384, 384, kernel_size=(2, 2), stride=(1, 1))
  (Bat61): BatchNorm2d(384, eps=1e-05, momentum=0.1, affine=True, track_running_stats=True)
  (Bat62): BatchNorm2d(384, eps=1e-05, momentum=0.1, affine=True, track_running_stats=True)
  (Bat63): BatchNorm2d(384, eps=1e-05, momentum=0.1, affine=True, track_running_stats=True)
  (P0): AvgPool2d(kernel_size=2, stride=2, padding=0)
  (FC1): Linear(in_features=384, out_features=192, bias=True)
  (FC2): Linear(in_features=192, out_features=6, bias=True)
  (dropout): Dropout(p=0.030333527250462067, inplace=False)
  (ReLU): ReLU()
  (LeakyReLU): LeakyReLU(negative_slope=0.2)
  (tanh): Tanh()
)
--- 39397.8539378643 seconds ---
